best-ai.pt (torch, 339181 bytes, 4 tensors)

net.0.weight f4 [128, 604]
00000000: e436 fe3c 40c8 2c3c 1849 d93c b0ec 45bc
00000010: 5034 e03c 2b60 b9bc b88b 733c e009 0d3c
00000020: 203e bbbc 4450 8cbc f8c1 7a3c 2809 2d3c
00000030: 8c25 3fbc f43b f6bc eedd 19bd ba81 60bc
00000040: 0161 f9bc d002 c43c 9007 9bbb f83e 3a3c
00000050: 30bd 1abb c0a9 0f3a d486 073c 603f 783b
00000060: d097 40bb f8b9 ec3c 0a6a 853c 0c4b febc
00000070: a6d7 a63c b0d5 69bc f055 ab3b 06b6 94bc
00000080: 06d4 243d 58f3 ecbc 1336 90bc 6c8a 1ebd
00000090: f0fb dc3c eae3 c7bc 2ec2 15bd 226c 53bc
000000a0: b74b 19bd e946 0abd 38cd 8dbb 1e05 5fbc
000000b0: f4ad ac3c 448b 07bd 37a3 c5bc b839 093d
000000c0: 6cd5 e03c 5c7d 06bd 0e25 5bbc 5407 1f3c
000000d0: 83c6 87bc 52fa b4bc 9264 25bd 28a4 d03c
000000e0: a02d 623c ec0f 05bc d0a2 d93b 00ad 48b9
000000f0: 1e21 983c 467f 1a3d e880 ffbb 6834 25bc
00000100: 38ca b63b 7cf6 eb3c c80e 0dbc 601a 3e3c
00000110: 8ab7 19bd 9c34 5cbc 6c9d 093d 3435 d33c
00000120: 26a8 5cbc 860f 17bd a8b0 3cbc 6041 a83c
00000130: 2238 8d3c 583b fb3c 200d dfbb d00e 253c
00000140: 6677 053d 3eb0 0e3d 533b d5bc e26f 01bd
00000150: 2803 d8bb ca66 0d3d 8876 19bc 1e91 f5bc
00000160: 2086 ce3c e451 4c3c 0164 a7bc d019 bc3c
00000170: 3c5a f6bc b035 d83b 78f5 463c fc5e c53c
00000180: 3070 c03b 6a1c 5fbc e08b c1bb ecdf 213d
00000190: b029 283c 81af d8bc 20a1 80bc c8a3 f63b
000001a0: aa0c 1cbd d562 febc c6f9 8ebc c094 f8ba
000001b0: c02a df3c d8fb f6bc 1ec1 d2bc f3c0 97bc
000001c0: 247d 433c b6f2 023d a4ba 253d 647d 653c
000001d0: f8fa 933c 5473 1e3d 7a54 22bd d4a7 14bc
000001e0: d860 85bc c0ad 25bd 6c04 f2bc 6035 20bb
000001f0: 6648 9f3c 2cc2 f43c 7c82 773c d000 8f3c
00000200: 1cac 66bc c96b 88bc 0c68 9dbc 8002 e8bb
00000210: d458 29bc e9ed 24bd dca1 053d a05b 3e3b
00000220: 41fb 02bd 3472 2e3c 3814 cb3c b4b9 a03c
00000230: 98d8 3d3c 1dfa debc e807 b03c a0c3 183d
00000240: 1021 bf3b 7ad6 073d 609c b73b 8060 8bbb
00000250: f45b 7a3c c131 1dbd 0cd6 423c 760b a93c
00000260: 09ca 1abd 2187 f1bc 4601 9bbc 0437 083c
00000270: f22d 94bc 2a7c 0c3d 2cbb d03c f857 fdbb
00000280: 007a 58bc 87e1 eabc 625e 0c3d 1ee0 a8bc
00000290: 82c8 a3bc 7097 ee3b 8059 003b 6093 fd3c
000002a0: 6019 74bc ae41 30bc 2457 41bc 9ed5 933c
000002b0: 4808 493c 48e1 1cbd 02b5 243d 403c 913a
000002c0: 002f 65ba 1e84 edbc 4000 773b 60c8 1fbb
000002d0: 57e9 0abd 14ef c43c a814 003d 862c e8bc
000002e0: e0f6 44bb 9081 20bc 9002 7b3c 6417 f93c
000002f0: f8e6 d4bb 4a01 6abc b8f2 e23c 1597 06bd
00000300: c29e 883c a444 b4bc 21be b4bc 308e c0bc
00000310: b088 0dbb 9481 07bd 10b4 b83c 8e34 143d
00000320: b83d c6bb ea0f 083d 28b5 253d 560a 133d
00000330: e493 1abc 80d2 94b9 6011 c53c 0cec 833c
00000340: e0f2 f33c 58a8 bc3c 5a8c 1dbc 549d af3c
00000350: dec1 5cbc b7b1 8abc 5c3c cd3c 4088 7cba
00000360: 2aa1 253d b4c5 db3c f47b e3bc 0860 22bc
00000370: 88ff a53b 245b 0a3c 7827 65bc 105d be3c
00000380: c014 153c a0ac fb3b 38a5 6a3c 3cea 143d
00000390: 3ce2 97bc f09b ac3c d85b cb3b d018 aa3c
000003a0: 26ce 203d a8f2 8abb e478 653c 07b5 1dbd
000003b0: 608e 2f3b 181c 04bc e0f7 debc 2802 eb3c
000003c0: 70fc e8bb a030 4bbc cebe 0f3d a397 9cbc
000003d0: 34f6 2f3c c041 89bc 444d 763c d88a 093d
000003e0: f390 06bd 805a 0b3a d05e dcbb 334c b0bc
000003f0: c870 ddbc 4047 20bd 9808 ca3c 9ae5 2fbc
0.031032033 0.01054579 0.026524112 -0.0120803565 0.027368695 -0.022628864 0.0148648545 0.008608311
-0.022856772 -0.017128117 0.015305035 0.010561265 -0.011666667 -0.030057885 -0.037565164 -0.013702804
-0.030441763 0.023927122 -0.004731126 0.011367552 -0.00236113 0.0005480312 0.008271892 0.0037879571
-0.0029387362 0.02889727 0.016285915 -0.031041645 0.020366501 -0.0142721385 0.0052287504 -0.018153202
0.040241264 -0.02892463 -0.01760391 -0.038706228 0.026975602 -0.02440067 -0.036562137 -0.012904199
-0.037425723 -0.03375903 -0.0043274425 -0.01361206 0.021079041 -0.0330918 -0.024125678 0.03350231
0.027445517 -0.032834396 -0.013375534 0.009706337 -0.01657415 -0.022092018 -0.040379114 0.0254689
0.013804823 -0.008121472 0.006641723 -0.00019137934 0.018570479 0.037719034 -0.0077973492 -0.010083295
0.0055783056 0.028804056 -0.008609481 0.011602968 -0.037528552 -0.013440277 0.033597395 0.025782205
-0.013467824 -0.03688004 -0.0115167275 0.020538986 0.01723868 0.030667946 -0.0068069845 0.010074332
0.03258457 0.034836046 -0.026029265 -0.03160084 -0.006592173 0.034521855 -0.009366639 -0.029976424
0.02521044 0.012470696 -0.020433428 0.022961527 -0.030072324 0.006598197 0.012143485 0.024093144
0.005872749 -0.013617614 -0.005906567 0.03952019 0.010263845 -0.026450874 -0.01570183 0.0075268485
-0.038098015 -0.031052986 -0.017453086 -0.0018965229 0.027242064 -0.030149385 -0.025726851 -0.018524623
0.011931691 0.03196975 0.040461197 0.014006946 0.018064007 0.038684204 -0.039631344 -0.0090732165
-0.01628153 -0.040448904 -0.029543124 -0.0024445876 0.019443702 0.029877745 0.0151067935 0.017456442
-0.01407912 -0.016652958 -0.019214652 -0.007080376 -0.01033612 -0.04026595 0.032625064 0.0029046312
-0.031977896 0.010647345 0.024789914 0.0196198 0.0115872845 -0.027218873 0.021488145 0.037295938
0.005832799 0.033163525 0.005603358 -0.004253447 0.015280712 -0.038377527 0.011891853 0.020635348
-0.037790332 -0.02948338 -0.018921506 0.008313898 -0.018088315 0.0342981 0.025479876 -0.007731434
-0.013212681 -0.028671993 0.034269698 -0.02061468 -0.01999307 0.0072812364 0.0019584596 0.030954063
-0.014898628 -0.010757847 -0.011800561 0.018046197 0.012270041 -0.038300782 0.040211685 0.0011080578
-0.000874266 -0.028993662 0.0037689358 -0.0024380907 -0.033913936 0.024039783 0.0312697 -0.028341543
-0.0030054376 -0.009796515 0.015320435 0.030406661 -0.00649726 -0.014282534 0.027703628 -0.032858927
0.016677264 -0.022005387 -0.022063317 -0.0235053 -0.0021596365 -0.03308256 0.022546798 0.036182933
-0.006049838 0.0332183 0.040455967 0.03589853 -0.009434674 -0.00028385594 0.024056137 0.016103767
0.029778898 0.023029491 -0.009615982 0.021437325 -0.013473956 -0.016930444 0.025053196 -0.000963334
0.0404369 0.02682767 -0.027769066 -0.009910591 0.005065862 0.008444581 -0.013986461 0.023237735
0.0090991855 0.0076804906 0.014321618 0.036356196 -0.018540494 0.02107045 0.006206017 0.020763785
0.0392591 -0.0042403527 0.014005873 -0.03850272 0.0026787743 -0.008063339 -0.027217805 0.028687552
-0.007110171 -0.01240173 0.035094075 -0.019115275 0.010739852 -0.016754985 0.01503307 0.033579677
-0.032853078 0.0005315915 -0.0067251697 -0.02152071 -0.027031317 -0.03913045 0.024662301 -0.010735894

net.0.bias f4 [128]
00000000: 0c11 3ebc 2077 bb3c 0ace 113d c04d 14ba
00000010: 5a85 00bd 95f9 cbbc 0403 6b3c b73a 0fbd
00000020: c8bc e73b 5c48 86bc 7a41 1e3d 3c59 1b3d
00000030: 2406 0d3c 20c3 e1bc 2ccc fe3c f4ed 003c
00000040: e02c b4ba 80f5 0f3a f1ef 04bd e044 b63c
00000050: bc9b 593c f42f 01bc a627 23bd 8fae c7bc
00000060: 0444 c33c d4f0 833c 005c 573b 94b5 e13c
00000070: 9550 a5bc 5c18 493c b8da e63c fb1a 8dbc
00000080: 1ecc 03bd d802 0bbc 1a1a d8bc 20d0 083b
00000090: c47d 07bc 677d 8cbc d8e7 37bc 8808 c33c
000000a0: 2cf3 08bd 2601 15bd 5815 75bc cc22 a93c
000000b0: be25 8f3c 548e f83c 2665 3ebc 5e1b 103d
000000c0: a76c c4bc 2c68 12bd 8039 81ba 2477 db3c
000000d0: e0bf e73c a04b 663c 9cc6 d43c e45b c03c
000000e0: ccb5 163d 8474 f9bc 7044 af3b bbec 15bd
000000f0: ed04 92bc c036 083c 48b1 de3c a0aa aabc
00000100: ad28 95bc 948f d43c 60c1 9c3b 2851 02bc
00000110: 58ed 0c3c 9ee6 49bc 8331 b2bc c8c3 9dbb
00000120: 08fb ce3b 8f59 97bc fc2d aebc 3895 8abb
00000130: 1c18 02bd 259b d6bc c60f 12bd 0d6b 20bd
00000140: 8621 84bc 76c8 7abc 84aa 033c f096 8bbc
00000150: 4d62 81bc ae16 fbbc ee48 18bd 7efc 193d
00000160: 2592 b1bc 70b6 d43c 5ccd 5a3c 5253 053d
00000170: ac48 82bc fa37 febc f897 af3c 2aea a83c
00000180: d8f3 b3bc 26f1 6dbc a636 d3bc b841 a03c
00000190: 97a9 a5bc 0060 fe3c 5cf1 843c b459 213d
000001a0: 86b2 3cbc 43ee 09bd 86ca ecbc 107b 513b
000001b0: ec06 1bbd e4a2 09bc e982 08bd 6b7a 81bc
000001c0: b065 70bb 14d2 83bc ecff 62bc 9c76 cf3c
000001d0: 0866 e73c f4fa f03c 0400 903c 0cf5 773c
000001e0: 78fd c23c 00ea 173a e694 03bd 08c3 22bc
000001f0: 323e 1abd a703 0bbd e801 033c e89c 11bc
-0.011600744 0.022883952 0.035596885 -0.00056573376 -0.031377174 -0.024899283 0.014343981 -0.034968104
0.007072065 -0.016391926 0.038636662 0.037926897 0.008607421 -0.027558863 0.031103216 0.007869232
-0.0013746284 0.00054915994 -0.03245539 0.022249639 0.013281759 -0.007884968 -0.039832734 -0.024375228
0.023836143 0.016106047 0.0032861233 0.027552404 -0.020180026 0.012273874 0.028180465 -0.01722478
-0.032177083 -0.008484565 -0.026379634 0.0020876005 -0.008269731 -0.01714964 -0.011224709 0.023807779
-0.03343503 -0.03637805 -0.014958702 0.020646475 0.017474052 0.030341305 -0.011620795 0.03518235
-0.02397759 -0.035743877 -0.0009859055 0.02679021 0.028289735 0.014056116 0.02597361 0.023481317
0.03679447 -0.030451067 0.0053487346 -0.036602717 -0.017824614 0.008313835 0.027184144 -0.020833313
-0.018207872 0.02594737 0.0047837943 -0.0079539195 0.008601509 -0.01232305 -0.021752125 -0.0048145987
0.0063165464 -0.018475322 -0.021262161 -0.004229214 -0.031761274 -0.026197026 -0.035659574 -0.03916459
-0.016129266 -0.015306583 0.00803626 -0.017039746 -0.015793944 -0.030650463 -0.037178926 0.03759431
-0.021676132 0.0259659 0.013354626 0.032550164 -0.015903793 -0.031032551 0.021434769 0.02061947
-0.02196686 -0.014522826 -0.025782894 0.019562587 -0.020222468 0.031051636 0.01622837 0.03939219
-0.011517173 -0.03367449 -0.028905164 0.003196422 -0.037848398 -0.008400653 -0.03332797 -0.015805444
-0.0036681704 -0.016091384 -0.013854962 0.025325112 0.028246894 0.029416539 0.017578132 0.015134107
0.023802504 0.00057950616 -0.032124422 -0.009934194 -0.03765697 -0.03393903 0.00799606 -0.008887507

net.2.weight f4 [52, 128]
00000000: f0f3 da3b 9f3d a73d 7276 6bbd fc01 8b3c
00000010: 0a20 a1bd 48a8 c43c 8a49 733d fa54 a4bd
00000020: 3f86 863d 52be 2b3d fce9 e83c 3406 b3bd
00000030: 5a2f 91bd 0066 f0bb 7efb 2e3d 71f1 b3bd
00000040: e229 6ebd 9ec5 5cbd 1e63 733d de13 7a3d
00000050: 3b74 a23d 8018 dcba b0b9 0cbc cb72 aebd
00000060: 69a5 adbd 9680 abbd d7c8 a23d 20cc 003d
00000070: e0cf 633c 0c42 82bc a22c 193d 5523 903d
00000080: e6d0 8dbd 4090 a5bd db82 a23d 8884 a1bc
00000090: 113e ad3d a60c 5b3d 7486 a03c 942b efbc
000000a0: 7f6e 46bd 40ce ddbb 8ff5 5cbd e83b 2bbc
000000b0: a860 c23c 8ce9 963c 0038 a23b 0683 a0bd
000000c0: fd50 9a3d 2e15 44bd 6669 d7bc 2f13 b43d
000000d0: d515 943d d0d4 a4bc e65d 2c3d 7c77 d5bc
000000e0: c9b8 8b3d 4add 6cbd a837 503c 2024 c3bb
000000f0: 5c1c c43c c29f 27bd 09c6 973d 6fff 883d
00000100: e584 9f3d c129 b03d 052b b23d 32d2 1f3d
00000110: 214c 9c3d 40c3 a5ba 90ed cebc 670a 863d
00000120: 5d7a 2abd a01a 113c 08cc 48bd 2998 4ebd
00000130: 797f b3bd 8614 7d3d 7ecf 023d 4e7e 9fbd
00000140: 7b97 aa3d d8b2 043d fccc abbd 5059 c03b
00000150: 846c e8bc a8df 30bc c070 e93c 9d64 8ebd
00000160: 508b 2cbc 80b5 e53a 0ca9 bebc ad7c 21bd
00000170: 1c04 44bd b595 a23d bc63 aebc 265d 2bbd
00000180: 38e0 c2bc 4eb0 693d 3a72 e2bc 3d06 99bd
00000190: e8f7 a8bc 3bf4 3bbd e408 d43c 0a91 64bd
000001a0: 38b1 933c 6eb0 763d 448a b4bd 9eda 86bd
000001b0: 0ee9 283d f585 34bd f580 57bd 89b2 afbd
000001c0: 4816 eb3c 0077 b5bb 7714 a03d da80 a1bd
000001d0: f032 6fbd c2d4 53bd 585d 1dbd 5099 5c3c
000001e0: 893d aa3d 0688 12bd 24bd 9dbd 7a93 3dbd
000001f0: b0fb 70bd 5827 ab3c 10d0 94bd 690b 823d
00000200: 8e12 8abd a005 3d3b e25a b3bd 182a aebc
00000210: 60fd 5fbc b837 fabc 18d3 90bc b8e8 ab3c
00000220: 4f8f 82bd 36f8 38bd f565 a73d b2fc 0cbd
00000230: 5a3d 31bd e0bf 37bc d59a a43d 1092 b3bd
00000240: e2cd 4e3d 9a9d 12bd 1de5 a1bd 20c6 c6bc
00000250: d0d6 c43c 2078 57bb 7286 343d 8ab6 2a3d
00000260: d3d7 8d3d a07d 733c dcbe d03c f9ba 8bbd
00000270: f4bf a5bd 8167 933d 9aee 053d 6b13 8cbd
00000280: 18c1 53bc 9934 9e3d 8c5d fc3c 402d 493b
00000290: 76cc 1f3d e5b7 a43d ba73 693d 8e46 76bd
000002a0: d0c9 e7bb 1add 8ebd 9bc6 983d bcb8 ff3c
000002b0: 0a2a 583d 92e4 0dbd 3424 97bc 2569 9f3d
000002c0: ae11 39bd c076 723b 909c a43b d66f 7b3d
000002d0: 7b49 ad3d 60a4 aa3c 229a 7c3d 2ad8 e1bc
000002e0: 8088 87bb b069 803c dd9c 9c3d d8e7 b4bc
000002f0: 860a 643d 0edf 6ebd e8e1 9f3c 98c4 61bc
00000300: 0562 51bd 294e 97bd 422e 4d3d 6848 453c
00000310: 4494 a13c d692 723d 4a36 693d 568b 613d
00000320: 1875 d6bc b106 b43d a520 29bd 27da 8bbd
00000330: be4b 8dbd 5dc5 8e3d c885 753c 6057 c2bc
00000340: b3d4 67bd 4042 df3c 10a2 903b 3355 49bd
00000350: f10b 89bd 482f 44bc aa11 94bd e077 1e3c
00000360: 3ec8 6f3d c87c 26bc f413 9dbc 2563 843d
00000370: 0061 d3ba cc43 8abc 98ba 57bc aa37 90bd
00000380: 54a5 9cbd ba8e 8fbd b09e c73c 5404 883c
00000390: 604f 3a3b 3487 f53c 5387 61bd c000 c73b
000003a0: cadd 2d3d 9cd1 843c 0243 85bd c027 ac3c
000003b0: 80e5 fc3c 68ce 05bc a840 063d 48c6 43bd
000003c0: 8130 74bd 0323 9bbd 7d49 3abd 3c93 acbc
000003d0: f46a de3c 5a20 8cbd d81b 653c 0c8e 7dbd
000003e0: 8c01 babc adef 833d c894 86bd 807e 92ba
000003f0: 34c6 d53c 5cfb 12bd b469 5fbd 6063 9bbd
0.0066819116 0.0816605 -0.057486005 0.01696872 -0.07867439 0.024006024 0.059396304 -0.080240205
0.06568574 0.04192955 0.028431885 -0.087414175 -0.0708911 -0.007336378 0.04272031 -0.08786286
-0.05814541 -0.0538994 0.059420697 0.061054103 0.079323255 -0.001679197 -0.008589193 -0.08517989
-0.08478815 -0.08374135 0.079484634 0.03144467 0.013904542 -0.015900634 0.03739608 0.07037989
-0.0692461 -0.08084154 0.07935115 -0.019716516 0.08459104 0.05347886 0.019595362 -0.029195584
-0.04844522 -0.0067689717 -0.05394512 -0.0104512945 0.02372773 0.01842191 0.0049505234 -0.07837491
0.075349785 -0.04787176 -0.026295375 0.087927215 0.07230727 -0.020121008 0.042081736 -0.026057951
0.06822354 -0.057828225 0.012708582 -0.005955234 0.023939304 -0.04092384 0.07410819 0.06689345
0.077890195 0.08601714 0.086996116 0.039018817 0.07631708 -0.001264669 -0.025259763 0.06544953
-0.0416206 0.008856446 -0.049022704 -0.05043808 -0.08764548 0.06178715 0.03193616 -0.077877626
0.08329674 0.03239712 -0.08388707 0.005870022 -0.028372057 -0.010795511 0.028496146 -0.06952784
-0.010531262 0.0017525405 -0.023273967 -0.03942554 -0.04785548 0.079387106 -0.021287791 -0.04183688
-0.023788556 0.057052903 -0.027642358 -0.07471893 -0.020626023 -0.045887213 0.025883146 -0.055802383
0.01802884 0.06022685 -0.088154346 -0.06584667 0.041237883 -0.044073064 -0.052613217 -0.08578975
0.028697148 -0.0055378675 0.07816403 -0.078859046 -0.058398187 -0.051716574 -0.038419098 0.013464287
0.08312518 -0.035774253 -0.07702091 -0.046283223 -0.058833778 0.020892784 -0.07266247 0.063498326
-0.0674182 0.0028842464 -0.08757569 -0.021260306 -0.013671249 -0.030544147 -0.017678782 0.020984992
-0.0637499 -0.045158587 0.08173744 -0.034420677 -0.0432714 -0.01121518 0.08037344 -0.087680936
0.050489314 -0.03579483 -0.07905028 -0.024264395 0.024028212 -0.0032877997 0.04407353 0.04167799
0.06925931 0.014861494 0.025481634 -0.068227716 -0.08093253 0.07197476 0.03269825 -0.06839641
-0.012924455 0.07724876 0.030806325 0.0030697137 0.03901335 0.080428876 0.05699513 -0.06012588
-0.0070736185 -0.069757655 0.07459756 0.031216018 0.052774467 -0.03464181 -0.01844988 0.077837266
-0.045182876 0.003699705 0.0050235465 0.061385952 0.08461281 0.020830333 0.06167043 -0.027568895
-0.004136145 0.015675396 0.07647107 -0.022083208 0.0556741 -0.05831819 0.0195169 -0.013779782
-0.05111887 -0.07387955 0.050092943 0.012041189 0.019724019 0.059222065 0.05693654 0.05506452
-0.026178882 0.08790339 -0.041290898 -0.06828719 -0.06899212 0.06971238 0.014985509 -0.023723304
-0.05659933 0.02725327 0.0044138506 -0.049153518 -0.06691731 -0.011974163 -0.07229932 0.009672135
0.058540575 -0.010161586 -0.019174553 0.06464223 -0.0016126931 -0.016878031 -0.013167046 -0.07041867
-0.07648721 -0.07009645 0.02436766 0.016603626 0.002842866 0.029971696 -0.055060696 0.0060730875
0.042447843 0.01621323 -0.06506921 0.021015048 0.030871153 -0.008166887 0.032776505 -0.047796518
-0.05961657 -0.07575037 -0.04548024 -0.0210663 0.027150609 -0.06842108 0.013983689 -0.061903045
-0.022705816 0.06442199 -0.065713465 -0.0011176616 0.026095487 -0.035884246 -0.054544166 -0.07587314

net.2.bias f4 [52]
00000000: a0da 66bb 8a06 3d3d 9f1b 983d f1c8 973d
00000010: 7ed0 9dbd 2ea5 213d 4047 603c d67c 07bd
00000020: 0897 b2bc 00d8 c13a 0913 97bd ea27 563d
00000030: bac9 543d 7028 babc fe23 5a3d 823d 043d
00000040: ee9e 2b3d 607a 863c 8854 20bc 44ae adbd
00000050: 9ad9 f6bc 5f21 25bd 0922 9a3d 5791 3ebd
00000060: 1f5d a83d 0440 8bbd d2ee 90bd 0636 7e3d
00000070: a496 92bd 6f7a 833d 9730 873d 0c75 823c
00000080: edb2 91bd 299f aabd c0b4 873a aa7a 67bd
00000090: 8030 fa3c 435a a4bd 4286 fdbc 6048 49bc
000000a0: eac6 4a3d 4014 f13a e606 4e3d 401d 6bbc
000000b0: 6a73 5e3d 13ff a9bd e417 0a3d f00e 693c
000000c0: 54d8 99bc c8a5 9b3c 1314 973d 1473 8cbc
-0.0035225525 0.046148814 0.07427143 0.074113734 -0.07705782 0.03946417 0.013688862 -0.033078037
-0.021800533 0.0014789104 -0.073766775 0.05228416 0.051950194 -0.02272436 0.05325698 0.03228522
0.041899614 0.016415775 -0.009785779 -0.08480504 -0.030133057 -0.04031503 0.07526023 -0.046525326
0.082208864 -0.067993194 -0.07076801 0.06206324 -0.07157639 0.06419837 0.06601065 0.015924953
-0.071142055 -0.08331139 0.001035355 -0.056513466 0.030540705 -0.080250286 -0.030947808 -0.012285322
0.049506105 0.0018392876 0.050299548 -0.014350235 0.054309286 -0.08300605 0.03371419 0.014224753
-0.018779911 0.01899995 0.07376876 -0.017144717
