models/linear_b/nlb_throw_weights_20251223.npy (npy, 560 bytes, 1 tensors)

array f8 [54]
000000 4f 70 aa 66 9c 59 f5 bf c9 91 3b da ba 6a 1d 40
       -1.3343776712781794 7.354228410611946
000010 53 9a 20 5b b7 e8 f4 3f 89 ad 06 54 28 2d 04 40
       1.306815486875753 2.5220495762384343
000020 9a 42 e3 ff 1e 12 12 40 46 80 0b 6f bc 5d c1 bf
       4.517696378942356 -0.13567309782138376
000030 de f2 28 de 8a 86 f6 3f bd 4f 67 ed 41 3c 10 40
       1.4078472784159923 4.058845242910988
000040 6a 0e ae 09 49 e7 f7 bf 3e 1b b2 05 ec 4d 0a 40
       -1.493966138660563 3.2880478329638256
000050 88 ac ee f5 46 34 0b 40 94 c6 31 d1 70 16 20 c0
       3.4005259717428693 -8.043829476667533
000060 40 31 8d e8 0a 61 95 3f 42 b7 ef 22 4b 9b eb 3f
       0.020878000682658326 0.8627067262984627
000070 67 62 ec b0 24 b2 00 c0 48 0b 6a f6 b9 1a da 3f
       -2.0869840452326573 0.4078812509907732
000080 f5 13 c8 27 4e 93 e0 bf c7 b9 40 0b c6 69 f7 bf
       -0.5179816033347594 -1.4633236350597245
000090 7f 31 0f dd 2e 85 f7 3f 6b 51 dc 53 9f bc f4 3f
       1.470015395653803 1.2960503841214528
0000a0 2a 6b 25 4c 8f 00 f3 3f 54 65 3a 2c 33 38 f1 3f
       1.1876366590938212 1.0762206771526808
0000b0 07 35 1c 19 b0 4d ee 3f e4 05 ba d8 ef 4c c8 bf
       0.9469833841737064 -0.18984792787891458
0000c0 02 42 cf 8a 5f 15 16 40 7d 91 7f 85 ce b8 16 40
       5.520872277164473 5.680475316916611
0000d0 1b b8 e6 19 c1 f2 14 40 96 ce 9b 14 4d 8a 06 40
       5.237064747530918 2.8175298318909183
0000e0 91 bb 44 5d bd 1a 16 40 f7 4b 38 b8 47 e7 dd 3f
       5.526112992591963 0.4672412203810263
0000f0 49 0b e4 8f 19 a1 03 40 62 1f f2 c9 90 8f 1c c0
       2.453662037035802 -7.1402007631330395
000100 40 42 e3 ad f8 b5 e6 3f 0e e2 f1 f8 5c 10 f8 bf
       0.7097133060688705 -1.5039949154289647
000110 6c 12 9c 19 29 94 07 c0 85 4e b6 b2 cf 2f e1 3f
       -2.947344017100752 0.5370863428565406
000120 b8 65 22 c4 b8 38 f4 bf 97 2f 83 f1 dc c8 18 40
       -1.2638480817316644 6.1961553322143095
000130 f2 4e d7 5a ee ae 19 c0 d0 88 cb 5d 92 4f c5 3f
       -6.420831126586323 0.1664908369048761
000140 77 92 3f bd 99 db fd 3f d1 76 66 26 47 8d ef 3f
       1.8661134140503728 0.9859958410267727
000150 67 cb 60 63 4c fc f7 3f 34 73 d1 06 2f 83 12 c0
       1.4990962869603324 -4.628109079870047
000160 46 80 0b 6f bc 5d b1 bf 88 33 a2 66 56 03 ea bf
       -0.06783654891069188 -0.8129074101030804
000170 b7 30 df 50 ca ef f1 bf 16 29 bc 85 fe 8e 14 c0
       -1.1210425528579842 -5.13964280091229
000180 42 b1 35 7c 4d 79 07 c0 f4 8c ac 5d 0b ad 10 40
       -2.9342298225293755 4.16898867002168
000190 e0 bf 49 b7 d8 fa a8 bf 2a 3e 5a 4e 9f 3e df bf
       -0.04878880727198953 -0.48819716121303947
0001a0 17 56 c8 7d 28 a5 20 40 6a 0e ae 09 49 e7 f7 bf
       8.322574549393762 -1.493966138660563
