models/linear_b/nlb_peg_weights_20251223.npy (npy, 408 bytes, 1 tensors)

array f8 [35]
00000000: ca88 9d3d 9499 e63f 5000 b630 1493 e63f
00000010: c520 69d2 9d00 ee3f d9b2 025a 2d83 e4bf
00000020: 037f a4a8 48ac d1bf 2a36 2594 9f84 b73f
00000030: 4277 bbe3 718f ba3f 902e 6f4b e0ee e33f
00000040: 3402 2bbb bcea 56bf 2e82 4c14 cc41 9abf
00000050: c426 f4a0 623e b43f fcb9 ed56 c13c f53f
00000060: aea1 59fd bb75 bd3f 92aa 1632 8f8b ccbf
00000070: 5000 b630 1493 c63f 9762 0c0f e936 ba3f
00000080: cf89 4dba bbd9 be3f 70d2 b6e7 bbff e43f
00000090: 1fe0 93b2 e528 e33f 6aa1 afd0 f59a 9c3f
000000a0: 5d10 9c9f 84d1 d43f 8ca6 0374 bbc4 e13f
000000b0: f5a2 1988 4712 f13f e981 93df e6b5 d63f
000000c0: 1a7f 14f9 084f d43f 54a2 edff 894a ecbf
000000d0: f760 d204 8116 ce3f f03d 2e91 0555 bdbf
000000e0: 843b c1fb f762 da3f 36c4 5e36 17a1 fc3f
000000f0: a474 edc7 4646 cb3f f53d 5ba1 f0cd ea3f
00000100: f12c 61b4 9366 0540 4356 25d0 9b66 f5bf
00000110: 4277 bbe3 718f ba3f
0.7062474444794813 0.7054539634118644 0.9375752553542261 -0.6410128362673176 -0.2761403700733213 0.09186742178754828 0.10375129518385243 0.6229096864057784
-0.0013987391545670193 -0.02564162134069841 0.0790769236520204 1.327332820477408 0.11507773337655777 -0.22300901361207487 0.1763634908529661 0.10240036599533152
0.1205098466721559 0.6562175298373187 0.5987423408360008 0.02793487631052597 0.325287967556738 0.5552651658919827 1.0669627491390064 0.3548524077760065
0.3173239166662697 -0.8840990065192025 0.23506176696242395 -0.11457857889603651 0.41229056916648 1.7893287776789868 0.213082168217544 0.8376391555302108
2.6750864116817117 -1.3375509386727493 0.10375129518385243
